…
prop_pred_loss_weight : 0.5
prop_pred_dropout : 0.0
prop_batchnorm : True
verbosity : 1
limit_data : None
reload_model : False
prev_epochs : 0
CHARS : ['7', '6', 'o', ']', '3', 's', '(', '-', 'S', '/', 'B', '4', '[', ')', '#', 'I', 'l', 'O', 'H', 'c', '1', '@', '=', 'n', 'P', '8', 'C', '2', 'F', '5', 'r', 'N', '+', '\\', ' ']
NCHARS : 35
Model: "encoder"
┏━━━━━━━━━━━━━━━━━━━━━━━━━━━━━━━━━┳━━━━━━━━━━━━━━━━━━━━━━━━┳━━━━━━━━━━━━━━━┓
┃ Layer (type)                    ┃ Output Shape           ┃       Param # ┃
┡━━━━━━━━━━━━━━━━━━━━━━━━━━━━━━━━━╇━━━━━━━━━━━━━━━━━━━━━━━━╇━━━━━━━━━━━━━━━┩
│ input_molecule_smi (InputLayer) │ (None, 34, 35)         │             0 │
├─────────────────────────────────┼────────────────────────┼───────────────┤
│ encoder_conv0 (Conv1D)          │ (None, 30, 2)          │           352 │
├─────────────────────────────────┼────────────────────────┼───────────────┤
│ encoder_norm0                   │ (None, 30, 2)          │             8 │
│ (BatchNormalization)            │                        │               │
├─────────────────────────────────┼────────────────────────┼───────────────┤
│ encoder_conv1 (Conv1D)          │ (None, 26, 2)          │            22 │
├─────────────────────────────────┼────────────────────────┼───────────────┤
│ encoder_norm1                   │ (None, 26, 2)          │             8 │
│ (BatchNormalization)            │                        │               │
├─────────────────────────────────┼────────────────────────┼───────────────┤
│ encoder_conv2 (Conv1D)          │ (None, 23, 1)          │             9 │
├─────────────────────────────────┼────────────────────────┼───────────────┤
│ encoder_norm2                   │ (None, 23, 1)          │             4 │
│ (BatchNormalization)            │                        │               │
├─────────────────────────────────┼────────────────────────┼───────────────┤
│ flatten (Flatten)               │ (None, 23)             │             0 │
├─────────────────────────────────┼────────────────────────┼───────────────┤
│ encoder_dense0 (Dense)          │ (None, 191)            │         4,584 │
├─────────────────────────────────┼────────────────────────┼───────────────┤
│ dropout (Dropout)               │ (None, 191)            │             0 │
├─────────────────────────────────┼────────────────────────┼───────────────┤
│ encoder_dense0_norm             │ (None, 191)            │           764 │
│ (BatchNormalization)            │                        │               │
├─────────────────────────────────┼────────────────────────┼───────────────┤
│ z_mean (Dense)                  │ (None, 156)            │        29,952 │
└─────────────────────────────────┴────────────────────────┴───────────────┘
 Total params: 35,703 (139.46 KB)
 Trainable params: 35,311 (137.93 KB)
 Non-trainable params: 392 (1.53 KB)
Model: "decoder"
┏━━━━━━━━━━━━━━━━━━━━━━━━━━━━━━━━━┳━━━━━━━━━━━━━━━━━━━━━━━━┳━━━━━━━━━━━━━━━┓
┃ Layer (type)                    ┃ Output Shape           ┃       Param # ┃
┡━━━━━━━━━━━━━━━━━━━━━━━━━━━━━━━━━╇━━━━━━━━━━━━━━━━━━━━━━━━╇━━━━━━━━━━━━━━━┩
│ decoder_input (InputLayer)      │ (None, 156)            │             0 │
├─────────────────────────────────┼────────────────────────┼───────────────┤
│ decoder_dense0 (Dense)          │ (None, 156)            │        24,492 │
├─────────────────────────────────┼────────────────────────┼───────────────┤
│ dropout_1 (Dropout)             │ (None, 156)            │             0 │
├─────────────────────────────────┼────────────────────────┼───────────────┤
│ decoder_dense0_norm             │ (None, 156)            │           624 │
│ (BatchNormalization)            │                        │               │
├─────────────────────────────────┼────────────────────────┼───────────────┤
│ repeat_vector (RepeatVector)    │ (None, 34, 156)        │             0 │
├─────────────────────────────────┼────────────────────────┼───────────────┤
│ decoder_gru0 (GRU)              │ (None, 34, 488)        │       945,744 │
├─────────────────────────────────┼────────────────────────┼───────────────┤
│ decoder_gru1 (GRU)              │ (None, 34, 488)        │     1,431,792 │
├─────────────────────────────────┼────────────────────────┼───────────────┤
│ decoder_gru2 (GRU)              │ (None, 34, 488)        │     1,431,792 │
├─────────────────────────────────┼────────────────────────┼───────────────┤
│ decoder_gru_final (GRU)         │ (None, 34, 35)         │        55,125 │
└─────────────────────────────────┴────────────────────────┴───────────────┘
 Total params: 3,889,569 (14.84 MB)
 Trainable params: 3,889,257 (14.84 MB)
 Non-trainable params: 312 (1.22 KB)
Model: "AE_ONLY"
┏━━━━━━━━━━━━━━━━━━━━━┳━━━━━━━━━━━━━━━━━━━┳━━━━━━━━━━━━┳━━━━━━━━━━━━━━━━━━━┓
┃ Layer (type)        ┃ Output Shape      ┃    Param # ┃ Connected to      ┃
┡━━━━━━━━━━━━━━━━━━━━━╇━━━━━━━━━━━━━━━━━━━╇━━━━━━━━━━━━╇━━━━━━━━━━━━━━━━━━━┩
│ input_molecule_smi  │ (None, 34, 35)    │          0 │ -                 │
│ (InputLayer)        │                   │            │                   │
├─────────────────────┼───────────────────┼────────────┼───────────────────┤
│ encoder             │ [(None, 156),     │     35,703 │ input_molecule_s… │
│ (Functional)        │ (None, 191)]      │            │                   │
├─────────────────────┼───────────────────┼────────────┼───────────────────┤
│ z_log_var (Dense)   │ (None, 156)       │     29,952 │ encoder[0][1]     │
├─────────────────────┼───────────────────┼────────────┼───────────────────┤
│ z_samp (Sampling)   │ (None, 156)       │          1 │ encoder[0][0],    │
│                     │                   │            │ z_log_var[0][0]   │
├─────────────────────┼───────────────────┼────────────┼───────────────────┤
│ decoder             │ (None, 34, 35)    │  3,889,569 │ z_samp[0][0]      │
│ (Functional)        │                   │            │                   │
├─────────────────────┼───────────────────┼────────────┼───────────────────┤
│ x_pred (NameLayer)  │ (None, 34, 35)    │          0 │ decoder[0][0]     │
├─────────────────────┼───────────────────┼────────────┼───────────────────┤
│ z_mean_z_log_var    │ (None, 312)       │          0 │ encoder[0][0],    │
│ (Concatenate)       │                   │            │ z_log_var[0][0]   │
└─────────────────────┴───────────────────┴────────────┴───────────────────┘
 Total params: 3,955,225 (15.09 MB)
 Trainable params: 3,954,521 (15.09 MB)
 Non-trainable params: 704 (2.75 KB)
Model schema saved to AE_ONLY.png.
Current vae annealer weight is 1.3208464534236994e-05
Epoch 1/70
Tensor("AE_ONLY_1/z_samp_1/stateless_random_normal:0", shape=(126, 156), dtype=float32)
…
